…
- This IS NOT expected if you are initializing SwinModel from the checkpoint of a model that you expect to be exactly identical (initializing a BertForSequenceClassification model from a BertForSequenceClassification model).
Loading Frozen vision encoder:microsoft/swin-base-patch4-window7-224 -- Done
Loading LLAMA
Loading checkpoint shards:   0%|          | 0/2 [00:00<?, ?it/s]Loading checkpoint shards:  50%|█████     | 1/2 [00:03<00:03,  3.47s/it]Loading checkpoint shards: 100%|██████████| 2/2 [00:04<00:00,  2.15s/it]Loading checkpoint shards: 100%|██████████| 2/2 [00:04<00:00,  2.35s/it]
Loading LLAMA Done
R2GenGPT(
  (visual_encoder): SwinModel(
    (embeddings): SwinEmbeddings(
      (patch_embeddings): SwinPatchEmbeddings(
        (projection): Conv2d(3, 128, kernel_size=(4, 4), stride=(4, 4))
      )
      (norm): LayerNorm((128,), eps=1e-05, elementwise_affine=True)
      (dropout): Dropout(p=0.0, inplace=False)
    )
    (encoder): SwinEncoder(
      (layers): ModuleList(
        (0): SwinStage(
          (blocks): ModuleList(
            (0-1): 2 x SwinLayer(
              (layernorm_before): LayerNorm((128,), eps=1e-05, elementwise_affine=True)
              (attention): SwinAttention(
                (self): SwinSelfAttention(
                  (query): Linear(in_features=128, out_features=128, bias=True)
                  (key): Linear(in_features=128, out_features=128, bias=True)
                  (value): Linear(in_features=128, out_features=128, bias=True)
                  (dropout): Dropout(p=0.0, inplace=False)
                )
                (output): SwinSelfOutput(
                  (dense): Linear(in_features=128, out_features=128, bias=True)
                  (dropout): Dropout(p=0.0, inplace=False)
                )
              )
              (drop_path): SwinDropPath(p=0.1)
              (layernorm_after): LayerNorm((128,), eps=1e-05, elementwise_affine=True)
              (intermediate): SwinIntermediate(
                (dense): Linear(in_features=128, out_features=512, bias=True)
                (intermediate_act_fn): GELUActivation()
              )
              (output): SwinOutput(
                (dense): Linear(in_features=512, out_features=128, bias=True)
                (dropout): Dropout(p=0.0, inplace=False)
              )
            )
          )
          (downsample): SwinPatchMerging(
            (reduction): Linear(in_features=512, out_features=256, bias=False)
            (norm): LayerNorm((512,), eps=1e-05, elementwise_affine=True)
          )
        )
        (1): SwinStage(
          (blocks): ModuleList(
            (0-1): 2 x SwinLayer(
              (layernorm_before): LayerNorm((256,), eps=1e-05, elementwise_affine=True)
              (attention): SwinAttention(
                (self): SwinSelfAttention(
                  (query): Linear(in_features=256, out_features=256, bias=True)
                  (key): Linear(in_features=256, out_features=256, bias=True)
                  (value): Linear(in_features=256, out_features=256, bias=True)
                  (dropout): Dropout(p=0.0, inplace=False)
                )
                (output): SwinSelfOutput(
                  (dense): Linear(in_features=256, out_features=256, bias=True)
                  (dropout): Dropout(p=0.0, inplace=False)
                )
              )
              (drop_path): SwinDropPath(p=0.1)
              (layernorm_after): LayerNorm((256,), eps=1e-05, elementwise_affine=True)
              (intermediate): SwinIntermediate(
                (dense): Linear(in_features=256, out_features=1024, bias=True)
                (intermediate_act_fn): GELUActivation()
              )
              (output): SwinOutput(
                (dense): Linear(in_features=1024, out_features=256, bias=True)
                (dropout): Dropout(p=0.0, inplace=False)
              )
            )
          )
          (downsample): SwinPatchMerging(
            (reduction): Linear(in_features=1024, out_features=512, bias=False)
            (norm): LayerNorm((1024,), eps=1e-05, elementwise_affine=True)
          )
        )
        (2): SwinStage(
          (blocks): ModuleList(
            (0-17): 18 x SwinLayer(
              (layernorm_before): LayerNorm((512,), eps=1e-05, elementwise_affine=True)
              (attention): SwinAttention(
                (self): SwinSelfAttention(
                  (query): Linear(in_features=512, out_features=512, bias=True)
                  (key): Linear(in_features=512, out_features=512, bias=True)
                  (value): Linear(in_features=512, out_features=512, bias=True)
                  (dropout): Dropout(p=0.0, inplace=False)
                )
                (output): SwinSelfOutput(
                  (dense): Linear(in_features=512, out_features=512, bias=True)
                  (dropout): Dropout(p=0.0, inplace=False)
                )
              )
              (drop_path): SwinDropPath(p=0.1)
              (layernorm_after): LayerNorm((512,), eps=1e-05, elementwise_affine=True)
              (intermediate): SwinIntermediate(
                (dense): Linear(in_features=512, out_features=2048, bias=True)
                (intermediate_act_fn): GELUActivation()
              )
              (output): SwinOutput(
                (dense): Linear(in_features=2048, out_features=512, bias=True)
                (dropout): Dropout(p=0.0, inplace=False)
              )
            )
          )
          (downsample): SwinPatchMerging(
            (reduction): Linear(in_features=2048, out_features=1024, bias=False)
            (norm): LayerNorm((2048,), eps=1e-05, elementwise_affine=True)
          )
        )
        (3): SwinStage(
          (blocks): ModuleList(
            (0-1): 2 x SwinLayer(
              (layernorm_before): LayerNorm((1024,), eps=1e-05, elementwise_affine=True)
              (attention): SwinAttention(
                (self): SwinSelfAttention(
                  (query): Linear(in_features=1024, out_features=1024, bias=True)
                  (key): Linear(in_features=1024, out_features=1024, bias=True)
                  (value): Linear(in_features=1024, out_features=1024, bias=True)
                  (dropout): Dropout(p=0.0, inplace=False)
                )
                (output): SwinSelfOutput(
                  (dense): Linear(in_features=1024, out_features=1024, bias=True)
                  (dropout): Dropout(p=0.0, inplace=False)
                )
              )
              (drop_path): SwinDropPath(p=0.1)
              (layernorm_after): LayerNorm((1024,), eps=1e-05, elementwise_affine=True)
              (intermediate): SwinIntermediate(
                (dense): Linear(in_features=1024, out_features=4096, bias=True)
                (intermediate_act_fn): GELUActivation()
              )
              (output): SwinOutput(
                (dense): Linear(in_features=4096, out_features=1024, bias=True)
                (dropout): Dropout(p=0.0, inplace=False)
              )
            )
          )
        )
      )
    )
    (layernorm): LayerNorm((1024,), eps=1e-05, elementwise_affine=True)
    (pooler): AdaptiveAvgPool1d(output_size=1)
  )
  (llama_model): LlamaForCausalLM(
    (model): LlamaModel(
      (embed_tokens): Embedding(32000, 4096, padding_idx=0)
      (layers): ModuleList(
        (0-31): 32 x LlamaDecoderLayer(
          (self_attn): LlamaAttention(
            (q_proj): Linear8bitLt(in_features=4096, out_features=4096, bias=False)
            (k_proj): Linear8bitLt(in_features=4096, out_features=4096, bias=False)
            (v_proj): Linear8bitLt(in_features=4096, out_features=4096, bias=False)
            (o_proj): Linear8bitLt(in_features=4096, out_features=4096, bias=False)
…
